hw1/model/model.npy (npy, 1384 bytes, 1 tensors)

array f8 [163]
0.03556526602667979 -0.010254957670747453 -0.016874287013355815 -0.008646008139577636 -0.01319429988688664 6.729016002984711e-05 0.0011294071738428102 0.003173864465446072
0.0015216927918992455 0.023913061411722152 0.02622053832866348 0.032948226487983824 0.035392047488175635 0.02855139921912864 0.04095614247579216 0.054481603157382326
0.050440105525556604 0.06156394238856631 0.10018581225100265 0.0446790148660145 0.014228676396483926 0.0527743764033221 -0.05146974895981143 0.14534121229114097
-0.052415103139338164 -0.0933175516972432 0.2701763388174529 0.679061275707865 -0.06781703563318273 -0.05011116330910046 -0.0698333362311177 0.009489438592852369
0.14287253137401143 -0.0072089188672076745 -0.03355901651122167 0.05529760460797351 0.28308920072495886 0.04648446619490976 0.013568450509631843 0.09675001335998526
-0.006049659839248217 -0.010680724165183604 -0.04563407652305373 0.06540168496372793 0.051842381953009435 -0.11129989342458853 0.0014067375368263361 -0.024950170728015388
-0.024678751824417637 -0.03142344355561002 0.006941816517034403 -0.007117381154654041 -0.06360916754801813 -0.027073692904870446 0.1573330390629309 0.0042526517250142774
-0.018373234457818466 0.001685194357223672 -0.008106041465703843 0.011290728772413014 -0.00907050040036308 -0.03744757290890063 0.0022425295503789157 0.11374553965285539
0.008894479082389503 0.005294693423729566 -0.008257939859352484 -0.014101498315813739 -0.006640404671554315 -0.026605836573647734 -0.0326357080265557 0.0020424237709552187
0.09916003815422028 -0.006825007940924098 0.007045779048094972 0.006011819429922673 0.0052247901117105445 -0.016845734553869594 0.006766510358111882 0.009150483976025504
-0.014982405482047415 0.05863691964079085 -0.009354770073867445 0.024903658591154437 0.06361724684976176 -0.10086831748759714 0.033510035424625696 0.2797179266485677
-0.4085043739048654 0.05965410686759272 0.8747203056989122 0.025762037356457563 0.0037078467620300635 -0.0551468689001292 -0.003648090600355229 -0.039561001693571476
0.05149573795742311 0.004940842311291492 -0.030828400707031967 -0.08654511535236628 0.0054788632210335435 0.00624063463353212 -0.004938503063602235 -0.013416113979229392
-0.01303523738581943 -0.003329128284165337 -0.012895284309899885 0.005378794881970973 0.012863089095195571 -0.1149422878642387 0.12749239766281636 -0.014597006014177774
-0.04985104339747637 -0.003822813287983307 0.03201259880658133 -0.06719810210988052 0.061981982808843206 0.2197266622842945 0.02514974472258963 0.021186352649857295
0.02245882266644168 0.01709911552313836 0.05117923996756574 0.055343492096778704 0.042728138355947694 0.05350285340744262 0.10721171934746462 -0.0005347581099869444
0.00300360253104135 -0.0008950651699395293 0.0021361819064405637 0.00035874729724431453 0.0017378081426534643 -0.002429040524622921 0.001065425359790794 0.0004036629988086335
-0.0018827715574194616 -0.0006671157791041378 0.0008459422653111015 -0.0024951674641963783 0.0007590580549313992 0.000247375748083203 -0.0002481681888904234 -0.0026894739844581786
0.000465837847628817 -0.03948842468150832 -0.0061282839856632845 0.028929283191441054 -0.005919172134221977 -0.005246345615887375 -0.011791027956038687 -0.056347838363092505
-0.06518044949718858 -0.03384918373465952 -0.04487202644967535 0.01594162767158528 -0.049420053524460335 -0.04985846396447893 0.0067234730530069476 0.09016466961705241
-0.03248402039678607 -0.07689391620717602 0.006213024297380187
00000000: f58f ea4c 9c35 a23f 38b3 8a1e 8d00 85bf
00000010: 0375 763b 7e47 91bf 0f7e 9a91 ffb4 81bf
00000020: a0f6 0ff4 9c05 8bbf b607 8d25 c4a3 113f
00000030: 2e90 08b8 1381 523f c7c6 9782 1300 6a3f
00000040: 3f27 a631 71ee 583f eba3 d762 aa7c 983f
00000050: aaa5 6b8a 8ed9 9a3f 5545 7406 97de a03f
00000060: 5619 000d e81e a23f 81d3 9af7 933c 9d3f
00000070: d0f7 0119 34f8 a43f c9d6 963f 03e5 ab3f
00000080: 2732 4717 49d3 a93f bdeb 571e 4f85 af3f
00000090: 2029 2403 c7a5 b93f f884 55f7 2ae0 a63f
000000a0: 315e 4e9e ec23 8d3f f728 7039 3e05 ab3f
000000b0: 770c 0831 3e5a aabf b595 c674 8a9a c23f
000000c0: af8f 9903 27d6 aabf f8b4 aeb8 a8e3 b7bf
000000d0: 37ef d7b2 914a d13f 75a6 64b6 deba e53f
000000e0: d6fb 270e 755c b1bf dd79 279f 2ba8 a9bf
000000f0: 4481 48f7 98e0 b1bf 9142 4fe3 326f 833f
00000100: 2bc2 dfa8 a549 c23f 9f04 636c 1987 7dbf
00000110: 48a1 cdbc a52e a1bf d140 adb6 f74f ac3f
00000120: 01ba bd2a 221e d23f 0087 28dc cfcc a73f
00000130: 7ef2 9199 c6c9 8b3f 82c9 44df 9bc4 b83f
00000140: 867c 9532 87c7 78bf f77f e587 c6df 85bf
00000150: afd5 7f84 595d a7bf fbc2 0532 2abe b03f
00000160: 87e0 11ae 158b aa3f 8d90 4e5a 267e bcbf
00000170: b50c beed 480c 573f 17cc 399d 898c 99bf
00000180: 0ec8 f7ff 6245 99bf e34f cccc bb16 a0bf
00000190: 7ede a5ae 056f 7c3f bbb1 ad74 1d27 7dbf
000001a0: 9e32 58be b048 b0bf 72f7 6ec6 34b9 9bbf
000001b0: 9a83 ad30 7d23 c43f cc8e 4881 3a6b 713f
000001c0: 80e7 78e4 6ed0 92bf 911d b5a9 379c 5b3f
000001d0: cf34 f677 e699 80bf 4baa 9af6 971f 873f
000001e0: 8d91 9ff4 8d93 82bf cba6 ea09 542c a3bf
000001f0: 9fbb 88e2 ec5e 623f 78f8 df7c 6d1e bd3f
00000200: 05c8 30c6 4437 823f 7d65 8e71 e3af 753f
00000210: e8a9 06ed 89e9 80bf 3768 ba10 3fe1 8cbf
00000220: 5031 580e f832 7bbf 10bc dd77 8f3e 9bbf
00000230: 12cd 4fa5 a0b5 a0bf 225d a0e9 45bb 603f
00000240: ea46 f160 8d62 b93f 725a 6b1e 8af4 7bbf
00000250: 5def 61e9 08dc 7c3f 75a2 747d d99f 783f
00000260: a93c 88ea 9666 753f 59a1 f11b 0240 91bf
00000270: 465f 234b 33b7 7b3f 1458 5b2b 7dbd 823f
00000280: 3587 7c6c 18af 8ebf 6c08 6488 a805 ae3f
00000290: 0c1b 3bfc 9728 83bf 4b8d cc3c 5880 993f
000002a0: bf68 ae4a 3849 b03f 76d0 cf8c 81d2 b9bf
000002b0: 8d1f 7934 3a28 a13f a5df c304 e6e6 d13f
000002c0: 4670 8c87 ef24 dabf 4a05 23ac fb8a ae3f
000002d0: 67f7 4370 b5fd eb3f c57f b20f 5d61 9a3f
000002e0: fda2 9b12 eb5f 6e3f ef42 cedc 353c acbf
000002f0: 3dab 48ba 99e2 6dbf 8218 f1f0 5641 a4bf
00000300: 6e2f d23c a65d aa3f be5c 4442 d93c 743f
00000310: 607a 4cf3 7a91 9fbf 5624 1118 d227 b6bf
00000320: 9554 a825 0171 763f ab52 849a c78f 793f
00000330: 14cf 6352 653a 74bf ccd8 3d56 e879 8bbf
00000340: 2c3b 24f2 37b2 8abf 2e87 5923 b045 6bbf
00000350: ddb2 11c3 d768 8abf ce62 c241 1308 763f
00000360: 224a ea97 f657 8a3f 1be8 4d97 db6c bdbf
00000370: 77a7 39bf ab51 c03f f56f 9afb 08e5 8dbf
00000380: 2095 2072 1386 a9bf 3489 9e41 0551 6fbf
00000390: 1c54 de91 f463 a03f e74a ea12 e533 b1bf
000003a0: d8de 353a 1abc af3f fcfe 48d6 0020 cc3f
000003b0: 7057 58cc dac0 993f 4fb9 020f e0b1 953f
000003c0: b3a5 6f13 72ff 963f bf80 d937 6e82 913f
000003d0: 4827 ca53 2a34 aa3f 5246 3471 fb55 ac3f
000003e0: 212c b769 76e0 a53f 1b5b 41db b964 ab3f
000003f0: fe64 582c 3a72 bb3f 6e34 fd4b e085 41bf
00000400: ce1d 83d4 029b 683f ca9f fbd0 5954 4dbf
00000410: a3a2 a5ed e57f 613f aeda c0e8 c782 373f
00000420: 393e ec48 e578 5c3f 3e2f a533 11e6 63bf
00000430: 9683 e7c4 b774 513f 1a9d e460 5774 3a3f
00000440: 3908 f590 ead8 5ebf fc52 193a 2cdc 45bf
00000450: 3d80 912e 47b8 4b3f 973b 04d5 be70 64bf
00000460: fcec c6c2 70df 483f 2c80 72bf 4636 303f
00000470: f241 5441 9243 30bf fe68 d059 3c08 66bf
00000480: 6d43 2052 7687 3e3f 19c0 27a9 d337 a4bf
00000490: bfcd c8b4 f819 79bf 5fdb d054 a39f 9d3f
000004a0: eb27 c6ab b33e 78bf 38ff 7f2d 317d 75bf
000004b0: 77c5 a8fb e425 88bf 8b86 f0b5 9fd9 acbf
000004c0: 3fd3 ed7a aaaf b0bf 02f8 4522 ae54 a1bf
000004d0: 9e94 365c 77f9 a6bf aa55 fa85 0053 903f
000004e0: b1e9 4ed3 954d a9bf 94fd 4f70 0c87 a9bf
000004f0: a91d 0d8e 128a 7b3f d287 4223 0815 b73f
00000500: ab5b 7eda bea1 a0bf 0106 5fd7 51af b3bf
00000510: 3ffd a902 d472 793f
