hw1/model/model_best.npy (npy, 520 bytes, 1 tensors)

array f8 [55]
0.1432189847465451 -0.014589195123755491 -0.0039283744483026226 -0.004435435045057257 0.002631979221958224 0.01905720790934248 0.004287060424935779 -0.029761916347914093
0.014967220294821833 0.09029424796221361 0.026379061847786375 0.0002029742431098676 0.03368930759836579 -0.06990773487594723 0.027772834574398768 0.15941990807271728
-0.2521331909900303 0.10166625687123997 0.778887172622496 -0.18840415001288993 0.006344292157523762 -0.04522663444918444 -0.057851980281082696 -0.007226272826696964
0.015663819896168194 -0.06203740102290873 0.1192083327348079 0.5395523393552297 0.00015150741074641033 -4.450799648305503e-05 0.00018167870399522193 1.0326269827275717e-05
-0.0005792125076786108 0.0003285090470762576 0.00018905965500398561 -0.0005914736015047536 0.0002536971041187709 -0.0008168723127305941 -5.817440878287489e-05 0.0018845108195314464
-0.0017839879421581756 -0.00032353104356333545 0.003907008041174286 -0.004155355775328425 -0.0008816563386538752 0.0026842000561478306 -0.007164553787996688 0.009653573629800597
-0.0009237731035218556 -0.0036746112342914993 0.0007140057181760608 0.0001594664536384171 -0.00928665814844039 -0.0034254785348948134 -0.01696471631890899
00000000: ca8c d3eb ff54 c23f 58b2 739f f0e0 8dbf
00000010: 78ab 82fc 3217 70bf e791 6407 e42a 72bf
00000020: e473 d315 a98f 653f 3711 e592 bb83 933f
00000030: 931f 2305 4f8f 713f 72b6 8565 e879 9ebf
00000040: de21 6d4d 22a7 8e3f 46be 031a 861d b73f
00000050: 7fda bddf 1c03 9b3f 106d e078 af9a 2a3f
00000060: 4640 b894 b93f a13f f695 072b 79e5 b1bf
00000070: 2e67 db60 7b70 9c3f 8277 c01d df67 c43f
00000080: 8a73 6240 f322 d0bf d763 5ec0 cc06 ba3f
00000090: 3800 b6ca a4ec e83f 9136 5e8f a01d c8bf
000000a0: 9349 53f5 78fc 793f 161b bc07 f227 a7bf
000000b0: 2ad6 a156 c69e adbf fdf5 66d7 4b99 7dbf
000000c0: 69e7 bc28 2d0a 903f b961 0bc1 5dc3 afbf
000000d0: 2fb6 81f2 6f84 be3f 285a 8044 0344 e13f
000000e0: dfac 9ebf bedb 233f 080c 4c1d c355 07bf
000000f0: 28c1 1f2f 20d0 273f 037e e4b7 dfa7 e53e
00000100: c7ad 9263 c9fa 42bf 8707 179d 7787 353f
00000110: d057 0a12 cac7 283f 5942 30e3 a361 43bf
00000120: 5464 e9c3 54a0 303f 3bb6 20ef 6bc4 4abf
00000130: f286 2a77 0980 0ebf f6a5 af15 36e0 5e3f
00000140: 12c4 8d77 963a 5dbf 012a 5840 f333 35bf
00000150: 0c5e 317c cb00 703f ef50 88d2 3405 71bf
00000160: 6db3 0692 dee3 4cbf 785e a0ee 2cfd 653f
00000170: c2a9 5b43 9458 7dbf cf75 3cb8 40c5 833f
00000180: 53df 5fa2 2b45 4ebf 451d 75e2 371a 6ebf
00000190: e370 b79a 8365 473f 3b02 0868 cee6 243f
000001a0: a920 4b28 e204 83bf d40b fac8 bf0f 6cbf
000001b0: 2d3f 1ad7 325f 91bf
