hw2/model/model_generative_W.npy (npy, 928 bytes, 1 tensors)

array f8 [106]
00000000: 88c1 c93c c137 963f be63 f2e8 8e2d a53e
00000010: f629 fd83 c73f e03f e873 5d7f 1ebb 113f
00000020: b62e e7a1 1e2b 4a3f 8395 8925 0498 993f
00000030: 6f17 3376 8753 ea3f 583a a1ed 6264 abbf
00000040: 42f6 65a0 19fc c83f 597d bdb2 1cdc c93f
00000050: c82b c13f 4909 e73f 2014 4d8b bce5 d6bf
00000060: f2e5 f461 e36a c7bf 8002 1d88 b0b0 f2bf
00000070: 8534 24b6 7fb6 c6bf 81f7 39b2 4390 e7bf
00000080: acb5 bd50 4fef e0bf 8e9b 9864 9e99 d5bf
00000090: 4e16 e3d4 bca3 f2bf 9990 8d41 1e3d f1bf
000000a0: 01d6 37b2 f5cd f5bf f2f7 949e 9b98 f0bf
000000b0: 7987 07c5 a62f be3f 7dec bf0b 51d5 c03f
000000c0: 545b 82e6 020d ee3f 12a7 bdb6 e281 0540
000000d0: 3651 056a c858 dcbf 1032 e902 272a fb3f
000000e0: 4d03 c2a0 9244 f1bf b6b4 d29d 2bd1 0140
000000f0: b31b 50fe ed80 a1bf 08d3 2870 3046 dbbf
00000100: 85c8 6b56 fa0d f23f fb90 f370 e009 e23f
00000110: 50b1 1005 64f3 c8bf 7ea2 8500 fd00 e0bf
00000120: a8bc b9f9 013f d4bf 57f9 29ce cb4a d0bf
00000130: 01a6 7256 2268 973f ad44 6569 b237 f2bf
00000140: 5582 86d3 68bd bcbf e240 a29e 9727 f23f
00000150: 5f5d 9aa9 8f21 ecbf cc3a 8c65 6435 debf
00000160: 0c57 714f 3488 d9bf 132f 30c8 46ad c8bf
00000170: 3cb3 30a5 9a57 ba3f 447e fa2f c03e e33f
00000180: dfc5 13a4 cecc e43f b00d 81d8 4792 d73f
00000190: d006 9c4f 6863 e43f 7c0e 7417 4bd8 d5bf
000001a0: cd37 2d52 cf2c 923f a2ec 38d4 af37 e53f
000001b0: 5e33 3dbb 0c52 e7bf 999a ce5a ef21 debf
000001c0: 52ce 3253 ef33 e0bf a8f7 1fa4 9686 e3bf
000001d0: 10e5 d745 ed72 fa3f 58fa 6173 d56d c9bf
000001e0: 3a5b c0a6 5966 c03f 9109 f2a2 8a18 a53f
000001f0: 2350 c50d b4ed c2bf dbb1 ab31 0daf c63f
00000200: 7a8e b801 7817 f73f b95c ebcf 7e3c db3f
00000210: 90d7 49e6 fe92 e2bf a1d9 f187 fe44 e5bf
00000220: 1353 bdb2 e560 cb3f 304d 8874 f907 cebf
00000230: 552d 6905 f1a5 95bf 0091 b54a f60d c93f
00000240: 31b9 fab6 4252 e13f 127a 449f 1c65 eb3f
00000250: e603 9786 21fa e13f d3be f0cd 929c e5bf
00000260: a491 236e 08b8 da3f 457d c080 7854 8c3f
00000270: e9cb 14d2 14e7 f3bf 7099 5b3b ad23 a8bf
00000280: a294 ce47 adae afbf c5e8 99a7 7601 b1bf
00000290: 75fc 4b8f 546a cfbf 2c72 3692 d437 d03f
000002a0: c74b 4fee a94f e53f 0af2 d157 2703 ea3f
000002b0: 8b5e 2377 bd0e c63f f307 9025 fd45 e63f
000002c0: f339 05ae 751b e2bf b529 bfa1 b599 c7bf
000002d0: 776b 7fde 9720 dcbf a800 5dbd 3d63 f2bf
000002e0: 0b6e d212 9db2 d3bf 8c17 66b9 52f3 dd3f
000002f0: d067 5bfd a72b b6bf 3b74 465b ffe7 c7bf
00000300: fc93 8e37 f599 adbf 840b b6cc 8adc 90bf
00000310: 3e0a 74e8 ae82 e3bf 7f40 9f84 ef5c cabf
00000320: 74fa 0993 abf7 d1bf d217 f124 8808 c9bf
00000330: d047 5b08 dfe9 d33f 7bf2 a361 47ad dfbf
00000340: e496 a1d0 9f03 e73f debc 1e9b 53a0 c2bf
0.02169706281205344 6.311524475443421e-07 0.5077855661305068 6.763814584816142e-05 0.000798597295039247 0.024993958273986216 0.8226964291177249 -0.05350026274446823
0.19519348461101244 0.2020297882799962 0.7198835606771974 -0.3577720032083693 -0.18294946940459017 -1.1681371037413157 -0.17744442361473403 -0.7363604050622002
-0.5292126252149294 -0.33750114272918885 -1.1649750057125803 -1.077421432558401 -1.3627831422467127 -1.0372577852826876 0.11791460333145477 0.1315099055644601
0.9390882970936709 2.688420703566302 -0.4429188762053572 1.6977911103923624 -1.0792413978199022 2.2271339731147135 -0.03418678025632662 -0.4261590094859433
1.1284125686475204 0.5637056547243725 -0.19492769477200023 -0.5001206407733461 -0.3163456858373572 -0.25456519253920845 0.02285817768703247 -1.1385978810324489
-0.11226515926547027 1.134666080153743 -0.8790968239363045 -0.4720087997128928 -0.3989382530029253 -0.192787978885797 0.10289923222508163 0.6014100014762751
0.6500008778222613 0.3683032621667861 0.6371347002861629 -0.3413264969860632 0.017749061003364198 0.6630477089851363 -0.7287658364308347 -0.4708212267673076
-0.5063397049875198 -0.6101792531551284 1.6530583122497013 -0.19866436132356813 0.12812348024518788 0.04120286215858749 -0.1478791301002512 0.17721714902235317
1.4432296817039103 0.42556734375598243 -0.5804438112088395 -0.6646721511049699 0.21389456965939554 -0.23461836042461348 -0.021140829043628646 0.19573858879005712
0.5412915777031114 0.856092749661743 0.5617835644444511 -0.6753629705690066 0.41748247867351496 0.013832990102001683 -1.24391634047492 -0.04714719152052538
-0.0618795538096404 -0.06642858115984314 -0.24543244358935437 0.25340761450368876 0.6659745840537362 0.8128849711643522 0.17232483212750468 0.6960435613293597
-0.5658520125232925 -0.18437834165372427 -0.4394893334226064 -1.1492288014415326 -0.30777670705876464 0.4679762659583211 -0.08660364089465067 -0.18676750141904272
-0.05781523039994593 -0.016466301674437314 -0.6097025432685041 -0.20596116996467015 -0.2807415901114958 -0.19557287029073095 0.31114936653204683 -0.49495110068509235
0.7191924166515631 -0.1455177791044439
